…
n&#34;, view at http://localhost:6006/ 2021-04-30 04:32:56.737730: I tensorflow/stream_executor/platform/default/dso_loader.cc:49] Successfully opened dynamic library libcudart.so.11.0 hyperparameters: lr0=0.01, lrf=0.2, momentum=0.937, weight_decay=0.0005, warmup_epochs=3.0, warmup_momentum=0.8, warmup_bias_lr=0.1, box=0.05, cls=0.5, cls_pw=1.0, obj=1.0, obj_pw=1.0, iou_t=0.2, anchor_t=4.0, fl_gamma=0.0, hsv_h=0.015, hsv_s=0.7, hsv_v=0.4, degrees=0.0, translate=0.1, scale=0.5, shear=0.0, perspective=0.0, flipud=0.0, fliplr=0.5, mosaic=1.0, mixup=0.0 from n params module arguments 0 -1 1 7040 models.common.Focus [3, 64, 3] 1 -1 1 73984 models.common.Conv [64, 128, 3, 2] 2 -1 1 156928 models.common.C3 [128, 128, 3] 3 -1 1 295424 models.common.Conv [128, 256, 3, 2] 4 -1 1 1611264 models.common.C3 [256, 256, 9] 5 -1 1 1180672 models.common.Conv [256, 512, 3, 2] 6 -1 1 6433792 models.common.C3 [512, 512, 9] 7 -1 1 4720640 models.common.Conv [512, 1024, 3, 2] 8 -1 1 2624512 models.common.SPP [1024, 1024, [5, 9, 13]] 9 -1 1 9971712 models.common.C3 [1024, 1024, 3, False] 10 -1 1 525312 models.common.Conv [1024, 512, 1, 1] 11 -1 1 0 torch.nn.modules.upsampling.Upsample [None, 2, &#39;nearest&#39;] 12 [-1, 6] 1 0 models.common.Concat [1] 13 -1 1 2757632 models.common.C3 [1024, 512, 3, False] 14 -1 1 131584 models.common.Conv [512, 256, 1, 1] 15 -1 1 0 torch.nn.modules.upsampling.Upsample [None, 2, &#39;nearest&#39;] 16 [-1, 4] 1 0 models.common.Concat [1] 17 -1 1 690688 models.common.C3 [512, 256, 3, False] 18 -1 1 590336 models.common.Conv [256, 256, 3, 2] 19 [-1, 14] 1 0 models.common.Concat [1] 20 -1 1 2495488 models.common.C3 [512, 512, 3, False] 21 -1 1 2360320 models.common.Conv [512, 512, 3, 2] 22 [-1, 10] 1 0 models.common.Concat [1] 23 -1 1 9971712 models.common.C3 [1024, 1024, 3, False] 24 [17, 20, 23] 1 37695 models.yolo.Detect [2, [[10, 13, 16, 30, 33, 23], [30, 61, 62, 45, 59, 119], [116, 90, 156, 198, 373, 326]], [256, 512, 1024]] Model Summary: 499 layers, 46636735 parameters, 46636735 gradients, 114.3 GFLOPS Scaled weight_decay = 0.0005 Optimizer groups: 110 .bias, 110 conv.weight, 107 other train: Scanning &#39;../train/labels&#39; for images and labe
…
